…
I0530 11:23:10.350754  2432 net.cpp:294] The NetState phase (0) differed from the phase (1) specified by a rule in layer data
I0530 11:23:10.350895  2432 net.cpp:51] Initializing net from parameters: 
name: "mouth"
state {
  phase: TRAIN
  level: 0
  stage: ""
}
layer {
  name: "data"
  type: "ImageData"
  top: "data"
  top: "clc-label"
  include {
    phase: TRAIN
  }
  transform_param {
    mirror: true
    crop_size: 48
    mean_value: 104.008
    mean_value: 116.669
    mean_value: 122.675
  }
  image_data_param {
    source: "all_shuffle_train.txt"
    batch_size: 96
    shuffle: true
  }
}
layer {
  name: "conv1"
  type: "Convolution"
  bottom: "data"
  top: "conv1"
  param {
    lr_mult: 1
    decay_mult: 1
  }
  param {
    lr_mult: 2
    decay_mult: 0
  }
  convolution_param {
    num_output: 12
    pad: 1
    kernel_size: 3
    stride: 2
    weight_filler {
      type: "xavier"
      std: 0.01
    }
    bias_filler {
      type: "constant"
      value: 0.2
    }
  }
}
layer {
  name: "relu1"
  type: "ReLU"
  bottom: "conv1"
  top: "conv1"
}
layer {
  name: "conv2"
  type: "Convolution"
  bottom: "conv1"
  top: "conv2"
  param {
    lr_mult: 1
    decay_mult: 1
  }
  param {
    lr_mult: 2
    decay_mult: 0
  }
  convolution_param {
    num_output: 20
    pad: 1
    kernel_size: 3
    stride: 2
    weight_filler {
      type: "xavier"
      std: 0.1
    }
    bias_filler {
      type: "constant"
      value: 0.2
    }
  }
}
layer {
  name: "relu2"
  type: "ReLU"
  bottom: "conv2"
  top: "conv2"
}
layer {
  name: "conv3"
  type: "Convolution"
  bottom: "conv2"
  top: "conv3"
  param {
    lr_mult: 1
    decay_mult: 1
  }
  param {
    lr_mult: 2
    decay_mult: 0
  }
  convolution_param {
    num_output: 40
    pad: 1
    kernel_size: 3
    stride: 2
    weight_filler {
      type: "xavier"
      std: 0.1
    }
    bias_filler {
      type: "constant"
      value: 0.2
    }
  }
}
layer {
  name: "relu3"
  type: "ReLU"
  bottom: "conv3"
  top: "conv3"
}
layer {
  name: "ip1-mouth"
  type: "InnerProduct"
  bottom: "conv3"
  top: "pool-mouth"
  param {
    lr_mult: 1
    decay_mult: 1
  }
  param {
    lr_mult: 2
    decay_mult: 0
  }
  inner_product_param {
    num_output: 128
    weight_filler {
      type: "xavier"
    }
    bias_filler {
      type: "constant"
      value: 0
    }
  }
}
layer {
  name: "fc-mouth"
  type: "InnerProduct"
  bottom: "pool-mouth"
  top: "fc-mouth"
  param {
    lr_mult: 1
    decay_mult: 1
  }
  param {
    lr_mult: 2
    decay_mult: 1
  }
  inner_product_param {
    num_output: 2
    weight_filler {
      type: "xavier"
    }
    bias_filler {
      type: "constant"
      value: 0
    }
  }
}
layer {
  name: "loss"
  type: "SoftmaxWithLoss"
  bottom: "fc-mouth"
  bottom: "clc-label"
  top: "loss"
}
layer {
  name: "acc"
  type: "Accuracy"
  bottom: "fc-mouth"
  bottom: "clc-label"
  top: "acc"
  include {
    phase: TRAIN
  }
  include {
    phase: TEST
  }
}
I0530 11:23:10.350991  2432 layer_factory.hpp:77] Creating layer data
I0530 11:23:10.378379  2432 net.cpp:84] Creating Layer data
I0530 11:23:10.378423  2432 net.cpp:380] data -> data
I0530 11:23:10.378458  2432 net.cpp:380] data -> clc-label
I0530 11:23:10.378875  2432 image_data_layer.cpp:38] Opening file all_shuffle_train.txt
I0530 11:23:10.392472  2432 image_data_layer.cpp:53] Shuffling data
I0530 11:23:10.392632  2432 image_data_layer.cpp:63] A total of 900 images.
I0530 11:23:10.466861  2432 image_data_layer.cpp:90] output data size: 96,3,48,48
I0530 11:23:10.471777  2432 net.cpp:122] Setting up data
I0530 11:23:10.471822  2432 net.cpp:129] Top shape: 96 3 48 48 (663552)
I0530 11:23:10.471827  2432 net.cpp:129] Top shape: 96 (96)
I0530 11:23:10.471830  2432 net.cpp:137] Memory required for data: 2654592
I0530 11:23:10.471837  2432 layer_factory.hpp:77] Creating layer clc-label_data_1_split
I0530 11:23:10.471848  2432 net.cpp:84] Creating Layer clc-label_data_1_split
I0530 11:23:10.471853  2432 net.cpp:406] clc-label_data_1_split <- clc-label
I0530 11:23:10.471866  2432 net.cpp:380] clc-label_data_1_split -> clc-label_data_1_split_0
I0530 11:23:10.471877  2432 net.cpp:380] clc-label_data_1_split -> clc-label_data_1_split_1
I0530 11:23:10.471920  2432 net.cpp:122] Setting up clc-label_data_1_split
I0530 11:23:10.471925  2432 net.cpp:129] Top shape: 96 (96)
I0530 11:23:10.471928  2432 net.cpp:129] Top shape: 96 (96)
I0530 11:23:10.471931  2432 net.cpp:137] Memory required for data: 2655360
I0530 11:23:10.471933  2432 layer_factory.hpp:77] Creating layer conv1
I0530 11:23:10.471951  2432 net.cpp:84] Creating Layer conv1
I0530 11:23:10.471954  2432 net.cpp:406] conv1 <- data
I0530 11:23:10.471959  2432 net.cpp:380] conv1 -> conv1
I0530 11:23:10.472615  2432 net.cpp:122] Setting up conv1
I0530 11:23:10.472627  2432 net.cpp:129] Top shape: 96 12 24 24 (663552)
I0530 11:23:10.472630  2432 net.cpp:137] Memory required for data: 5309568
I0530 11:23:10.472645  2432 layer_factory.hpp:77] Creating layer relu1
I0530 11:23:10.472651  2432 net.cpp:84] Creating Layer relu1
I0530 11:23:10.472654  2432 net.cpp:406] relu1 <- conv1
I0530 11:23:10.472659  2432 net.cpp:367] relu1 -> conv1 (in-place)
I0530 11:23:10.472666  2432 net.cpp:122] Setting up relu1
I0530 11:23:10.472669  2432 net.cpp:129] Top shape: 96 12 24 24 (663552)
I0530 11:23:10.472672  2432 net.cpp:137] Memory required for data: 7963776
I0530 11:23:10.472674  2432 layer_factory.hpp:77] Creating layer conv2
I0530 11:23:10.472685  2432 net.cpp:84] Creating Layer conv2
I0530 11:23:10.472689  2432 net.cpp:406] conv2 <- conv1
I0530 11:23:10.472694  2432 net.cpp:380] conv2 -> conv2
I0530 11:23:10.473521  2432 net.cpp:122] Setting up conv2
I0530 11:23:10.473534  2432 net.cpp:129] Top shape: 96 20 12 12 (276480)
I0530 11:23:10.473538  2432 net.cpp:137] Memory required for data: 9069696
I0530 11:23:10.473546  2432 layer_factory.hpp:77] Creating layer relu2
I0530 11:23:10.473551  2432 net.cpp:84] Creating Layer relu2
I0530 11:23:10.473556  2432 net.cpp:406] relu2 <- conv2
I0530 11:23:10.473559  2432 net.cpp:367] relu2 -> conv2 (in-place)
I0530 11:23:10.473564  2432 net.cpp:122] Setting up relu2
I0530 11:23:10.473568  2432 net.cpp:129] Top shape: 96 20 12 12 (276480)
I0530 11:23:10.473572  2432 net.cpp:137] Memory required for data: 10175616
I0530 11:23:10.473573  2432 layer_factory.hpp:77] Creating layer conv3
I0530 11:23:10.473582  2432 net.cpp:84] Creating Layer conv3
I0530 11:23:10.473587  2432 net.cpp:406] conv3 <- conv2
I0530 11:23:10.473592  2432 net.cpp:380] conv3 -> conv3
I0530 11:23:10.474167  2432 net.cpp:122] Setting up conv3
I0530 11:23:10.474179  2432 net.cpp:129] Top shape: 96 40 6 6 (138240)
I0530 11:23:10.474182  2432 net.cpp:137] Memory required for data: 10728576
I0530 11:23:10.474189  2432 layer_factory.hpp:77] Creating layer relu3
I0530 11:23:10.474197  2432 net.cpp:84] Creating Layer relu3
I0530 11:23:10.474201  2432 net.cpp:406] relu3 <- conv3
I0530 11:23:10.474205  2432 net.cpp:367] relu3 -> conv3 (in-place)
I0530 11:23:10.474210  2432 net.cpp:122] Setting up relu3
I0530 11:23:10.474215  2432 net.cpp:129] Top shape: 96 40 6 6 (138240)
I0530 11:23:10.474216  2432 net.cpp:137] Memory required for data: 11281536
I0530 11:23:10.474220  2432 layer_factory.hpp:77] Creating layer ip1-mouth
I0530 11:23:10.474228  2432 net.cpp:84] Creating Layer ip1-mouth
I0530 11:23:10.474232  2432 net.cpp:406] ip1-mouth <- conv3
I0530 11:23:10.474236  2432 net.cpp:380] ip1-mouth -> pool-mouth
I0530 11:23:10.475553  2432 net.cpp:122] Setting up ip1-mouth
I0530 11:23:10.475564  2432 net.cpp:129] Top shape: 96 128 (12288)
I0530 11:23:10.475566  2432 net.cpp:137] Memory required for data: 11330688
I0530 11:23:10.475582  2432 layer_factory.hpp:77] Creating layer fc-mouth
I0530 11:23:10.475591  2432 net.cpp:84] Creating Layer fc-mouth
I0530 11:23:10.475595  2432 net.cpp:406] fc-mouth <- pool-mouth
I0530 11:23:10.475600  2432 net.cpp:380] fc-mouth -> fc-mouth
I0530 11:23:10.475684  2432 net.cpp:122] Setting up fc-mouth
I0530 11:23:10.475692  2432 net.cpp:129] Top shape: 96 2 (192)
I0530 11:23:10.475694  2432 net.cpp:137] Memory required for data: 11331456
I0530 11:23:10.475702  2432 layer_factory.hpp:77] Creating layer fc-mouth_fc-mouth_0_split
I0530 11:23:10.475708  2432 net.cpp:84] Creating Layer fc-mouth_fc-mouth_0_split
I0530 11:23:10.475713  2432 net.cpp:406] fc-mouth_fc-mouth_0_split <- fc-mouth
I0530 11:23:10.475718  2432 net.cpp:380] fc-mouth_fc-mouth_0_split -> fc-mouth_fc-mouth_0_split_0
I0530 11:23:10.475723  2432 net.cpp:380] fc-mouth_fc-mouth_0_split -> fc-mouth_fc-mouth_0_split_1
I0530 11:23:10.475750  2432 net.cpp:122] Setting up fc-mouth_fc-mouth_0_split
I0530 11:23:10.475757  2432 net.cpp:129] Top shape: 96 2 (192)
I0530 11:23:10.475761  2432 net.cpp:129] Top shape: 96 2 (192)
I0530 11:23:10.475764  2432 net.cpp:137] Memory required for data: 11332992
I0530 11:23:10.475766  2432 layer_factory.hpp:77] Creating layer loss
I0530 11:23:10.475770  2432 net.cpp:84] Creating Layer loss
I0530 11:23:10.475775  2432 net.cpp:406] loss <- fc-mouth_fc-mouth_0_split_0
I0530 11:23:10.475778  2432 net.cpp:406] loss <- clc-label_data_1_split_0
I0530 11:23:10.475782  2432 net.cpp:380] loss -> loss
…
I0530 11:23:10.885346  2432 net.cpp:294] The NetState phase (1) differed from the phase (0) specified by a rule in layer acc
I0530 11:23:10.885444  2432 net.cpp:51] Initializing net from parameters: 
name: "mouth"
state {
  phase: TEST
}
layer {
  name: "data"
  type: "ImageData"
  top: "data"
  top: "clc-label"
  include {
    phase: TEST
  }
  transform_param {
    mirror: false
    crop_size: 48
    mean_value: 104.008
    mean_value: 116.669
    mean_value: 122.675
  }
  image_data_param {
    source: "all_shuffle_val.txt"
    batch_size: 30
    shuffle: false
  }
}
layer {
  name: "conv1"
  type: "Convolution"
  bottom: "data"
  top: "conv1"
  param {
    lr_mult: 1
    decay_mult: 1
  }
  param {
    lr_mult: 2
    decay_mult: 0
  }
  convolution_param {
    num_output: 12
    pad: 1
    kernel_size: 3
    stride: 2
    weight_filler {
      type: "xavier"
      std: 0.01
    }
    bias_filler {
      type: "constant"
      value: 0.2
    }
  }
}
layer {
  name: "relu1"
  type: "ReLU"
  bottom: "conv1"
  top: "conv1"
}
layer {
  name: "conv2"
  type: "Convolution"
  bottom: "conv1"
  top: "conv2"
  param {
    lr_mult: 1
    decay_mult: 1
  }
  param {
    lr_mult: 2
    decay_mult: 0
  }
  convolution_param {
    num_output: 20
    pad: 1
    kernel_size: 3
    stride: 2
    weight_filler {
      type: "xavier"
      std: 0.1
    }
    bias_filler {
      type: "constant"
      value: 0.2
    }
  }
}
layer {
  name: "relu2"
  type: "ReLU"
  bottom: "conv2"
  top: "conv2"
}
layer {
  name: "conv3"
  type: "Convolution"
  bottom: "conv2"
  top: "conv3"
  param {
    lr_mult: 1
    decay_mult: 1
  }
  param {
    lr_mult: 2
    decay_mult: 0
  }
  convolution_param {
    num_output: 40
    pad: 1
    kernel_size: 3
    stride: 2
    weight_filler {
      type: "xavier"
      std: 0.1
    }
    bias_filler {
      type: "constant"
      value: 0.2
    }
  }
}
layer {
  name: "relu3"
  type: "ReLU"
  bottom: "conv3"
  top: "conv3"
}
layer {
  name: "ip1-mouth"
  type: "InnerProduct"
  bottom: "conv3"
  top: "pool-mouth"
  param {
    lr_mult: 1
    decay_mult: 1
  }
  param {
    lr_mult: 2
    decay_mult: 0
  }
  inner_product_param {
    num_output: 128
    weight_filler {
      type: "xavier"
    }
    bias_filler {
      type: "constant"
      value: 0
    }
  }
}
layer {
  name: "fc-mouth"
  type: "InnerProduct"
  bottom: "pool-mouth"
  top: "fc-mouth"
  param {
    lr_mult: 1
    decay_mult: 1
  }
  param {
    lr_mult: 2
    decay_mult: 1
  }
  inner_product_param {
    num_output: 2
    weight_filler {
      type: "xavier"
    }
    bias_filler {
      type: "constant"
      value: 0
    }
  }
}
layer {
  name: "loss"
  type: "SoftmaxWithLoss"
  bottom: "fc-mouth"
  bottom: "clc-label"
  top: "loss"
}
layer {
  name: "acc"
  type: "Accuracy"
  bottom: "fc-mouth"
  bottom: "clc-label"
  top: "acc"
  include {
    phase: TRAIN
  }
  include {
    phase: TEST
  }
}
I0530 11:23:10.885509  2432 layer_factory.hpp:77] Creating layer data
I0530 11:23:10.885525  2432 net.cpp:84] Creating Layer data
I0530 11:23:10.885530  2432 net.cpp:380] data -> data
I0530 11:23:10.885540  2432 net.cpp:380] data -> clc-label
I0530 11:23:10.885550  2432 image_data_layer.cpp:38] Opening file all_shuffle_val.txt
I0530 11:23:10.891940  2432 image_data_layer.cpp:63] A total of 100 images.
I0530 11:23:10.908394  2432 image_data_layer.cpp:90] output data size: 30,3,48,48
I0530 11:23:10.911324  2432 net.cpp:122] Setting up data
I0530 11:23:10.911348  2432 net.cpp:129] Top shape: 30 3 48 48 (207360)
I0530 11:23:10.911353  2432 net.cpp:129] Top shape: 30 (30)
I0530 11:23:10.911356  2432 net.cpp:137] Memory required for data: 829560
I0530 11:23:10.911361  2432 layer_factory.hpp:77] Creating layer clc-label_data_1_split
I0530 11:23:10.911392  2432 net.cpp:84] Creating Layer clc-label_data_1_split
I0530 11:23:10.911397  2432 net.cpp:406] clc-label_data_1_split <- clc-label
I0530 11:23:10.911404  2432 net.cpp:380] clc-label_data_1_split -> clc-label_data_1_split_0
I0530 11:23:10.911413  2432 net.cpp:380] clc-label_data_1_split -> clc-label_data_1_split_1
I0530 11:23:10.911465  2432 net.cpp:122] Setting up clc-label_data_1_split
I0530 11:23:10.911473  2432 net.cpp:129] Top shape: 30 (30)
I0530 11:23:10.911475  2432 net.cpp:129] Top shape: 30 (30)
I0530 11:23:10.911478  2432 net.cpp:137] Memory required for data: 829800
I0530 11:23:10.911480  2432 layer_factory.hpp:77] Creating layer conv1
I0530 11:23:10.911492  2432 net.cpp:84] Creating Layer conv1
I0530 11:23:10.911495  2432 net.cpp:406] conv1 <- data
I0530 11:23:10.911500  2432 net.cpp:380] conv1 -> conv1
I0530 11:23:10.911722  2432 net.cpp:122] Setting up conv1
I0530 11:23:10.911731  2432 net.cpp:129] Top shape: 30 12 24 24 (207360)
I0530 11:23:10.911732  2432 net.cpp:137] Memory required for data: 1659240
I0530 11:23:10.911743  2432 layer_factory.hpp:77] Creating layer relu1
I0530 11:23:10.911751  2432 net.cpp:84] Creating Layer relu1
I0530 11:23:10.911754  2432 net.cpp:406] relu1 <- conv1
I0530 11:23:10.911759  2432 net.cpp:367] relu1 -> conv1 (in-place)
I0530 11:23:10.911767  2432 net.cpp:122] Setting up relu1
I0530 11:23:10.911772  2432 net.cpp:129] Top shape: 30 12 24 24 (207360)
I0530 11:23:10.911775  2432 net.cpp:137] Memory required for data: 2488680
I0530 11:23:10.911779  2432 layer_factory.hpp:77] Creating layer conv2
I0530 11:23:10.911788  2432 net.cpp:84] Creating Layer conv2
I0530 11:23:10.911794  2432 net.cpp:406] conv2 <- conv1
I0530 11:23:10.911800  2432 net.cpp:380] conv2 -> conv2
I0530 11:23:10.911990  2432 net.cpp:122] Setting up conv2
I0530 11:23:10.911998  2432 net.cpp:129] Top shape: 30 20 12 12 (86400)
I0530 11:23:10.912000  2432 net.cpp:137] Memory required for data: 2834280
I0530 11:23:10.912006  2432 layer_factory.hpp:77] Creating layer relu2
I0530 11:23:10.912010  2432 net.cpp:84] Creating Layer relu2
I0530 11:23:10.912014  2432 net.cpp:406] relu2 <- conv2
I0530 11:23:10.912017  2432 net.cpp:367] relu2 -> conv2 (in-place)
I0530 11:23:10.912021  2432 net.cpp:122] Setting up relu2
I0530 11:23:10.912026  2432 net.cpp:129] Top shape: 30 20 12 12 (86400)
I0530 11:23:10.912029  2432 net.cpp:137] Memory required for data: 3179880
I0530 11:23:10.912031  2432 layer_factory.hpp:77] Creating layer conv3
I0530 11:23:10.912037  2432 net.cpp:84] Creating Layer conv3
I0530 11:23:10.912040  2432 net.cpp:406] conv3 <- conv2
I0530 11:23:10.912045  2432 net.cpp:380] conv3 -> conv3
I0530 11:23:10.912251  2432 net.cpp:122] Setting up conv3
I0530 11:23:10.912258  2432 net.cpp:129] Top shape: 30 40 6 6 (43200)
I0530 11:23:10.912261  2432 net.cpp:137] Memory required for data: 3352680
I0530 11:23:10.912266  2432 layer_factory.hpp:77] Creating layer relu3
I0530 11:23:10.912269  2432 net.cpp:84] Creating Layer relu3
I0530 11:23:10.912272  2432 net.cpp:406] relu3 <- conv3
I0530 11:23:10.912277  2432 net.cpp:367] relu3 -> conv3 (in-place)
I0530 11:23:10.912284  2432 net.cpp:122] Setting up relu3
I0530 11:23:10.912291  2432 net.cpp:129] Top shape: 30 40 6 6 (43200)
I0530 11:23:10.912295  2432 net.cpp:137] Memory required for data: 3525480
I0530 11:23:10.912299  2432 layer_factory.hpp:77] Creating layer ip1-mouth
I0530 11:23:10.912317  2432 net.cpp:84] Creating Layer ip1-mouth
I0530 11:23:10.912322  2432 net.cpp:406] ip1-mouth <- conv3
I0530 11:23:10.912329  2432 net.cpp:380] ip1-mouth -> pool-mouth
I0530 11:23:10.913887  2432 net.cpp:122] Setting up ip1-mouth
I0530 11:23:10.913898  2432 net.cpp:129] Top shape: 30 128 (3840)
I0530 11:23:10.913900  2432 net.cpp:137] Memory required for data: 3540840
I0530 11:23:10.913906  2432 layer_factory.hpp:77] Creating layer fc-mouth
I0530 11:23:10.913914  2432 net.cpp:84] Creating Layer fc-mouth
I0530 11:23:10.913918  2432 net.cpp:406] fc-mouth <- pool-mouth
I0530 11:23:10.913923  2432 net.cpp:380] fc-mouth -> fc-mouth
I0530 11:23:10.913993  2432 net.cpp:122] Setting up fc-mouth
I0530 11:23:10.914011  2432 net.cpp:129] Top shape: 30 2 (60)
I0530 11:23:10.914013  2432 net.cpp:137] Memory required for data: 3541080
I0530 11:23:10.914021  2432 layer_factory.hpp:77] Creating layer fc-mouth_fc-mouth_0_split
I0530 11:23:10.914026  2432 net.cpp:84] Creating Layer fc-mouth_fc-mouth_0_split
I0530 11:23:10.914031  2432 net.cpp:406] fc-mouth_fc-mouth_0_split <- fc-mouth
I0530 11:23:10.914034  2432 net.cpp:380] fc-mouth_fc-mouth_0_split -> fc-mouth_fc-mouth_0_split_0
I0530 11:23:10.914039  2432 net.cpp:380] fc-mouth_fc-mouth_0_split -> fc-mouth_fc-mouth_0_split_1
I0530 11:23:10.914067  2432 net.cpp:122] Setting up fc-mouth_fc-mouth_0_split
I0530 11:23:10.914072  2432 net.cpp:129] Top shape: 30 2 (60)
I0530 11:23:10.914074  2432 net.cpp:129] Top shape: 30 2 (60)
I0530 11:23:10.914077  2432 net.cpp:137] Memory required for data: 3541560
I0530 11:23:10.914078  2432 layer_factory.hpp:77] Creating layer loss
I0530 11:23:10.914083  2432 net.cpp:84] Creating Layer loss
I0530 11:23:10.914085  2432 net.cpp:406] loss <- fc-mouth_fc-mouth_0_split_0
I0530 11:23:10.914089  2432 net.cpp:406] loss <- clc-label_data_1_split_0
I0530 11:23:10.914093  2432 net.cpp:380] loss -> loss
…
